<net name="default" version="2" batch="1">
    <layers>
        <layer name="input" type="Input" precision="FP32" id="0">
            <output>
                <port id="0">
                    <dim>1</dim>
                    <dim>3</dim>
                    <dim>184</dim>
                    <dim>184</dim>
                </port>
            </output>
        </layer>
        <layer name="conv1_1" type="Convolution" precision="FP32" id="1">
            <convolution_data stride-x="1" stride-y="1" pad-x="1" pad-y="1" kernel-x="3" kernel-y="3" output="64" group="1"/>
            <input>
                <port id="1">
                    <dim>1</dim>
                    <dim>3</dim>
                    <dim>184</dim>
                    <dim>184</dim>
                </port>
            </input>
            <output>
                <port id="2">
                    <dim>1</dim>
                    <dim>64</dim>
                    <dim>184</dim>
                    <dim>184</dim>
                </port>
            </output>
            <weights offset="0" size="6912"/>
            <biases offset="6912" size="256"/>
        </layer>
        <layer name="relu1_1" type="ReLU" precision="FP32" id="2">
            <data negative_slope="0.000000" engine="caffe.ReLUParameter.DEFAULT"/>
            <input>
                <port id="3">
                    <dim>1</dim>
                    <dim>64</dim>
                    <dim>184</dim>
                    <dim>184</dim>
                </port>
            </input>
            <output>
                <port id="4">
                    <dim>1</dim>
                    <dim>64</dim>
                    <dim>184</dim>
                    <dim>184</dim>
                </port>
            </output>
        </layer>
        <layer name="conv1_2" type="Convolution" precision="FP32" id="3">
            <convolution_data stride-x="1" stride-y="1" pad-x="1" pad-y="1" kernel-x="3" kernel-y="3" output="64" group="1"/>
            <input>
                <port id="5">
                    <dim>1</dim>
                    <dim>64</dim>
                    <dim>184</dim>
                    <dim>184</dim>
                </port>
            </input>
            <output>
                <port id="6">
                    <dim>1</dim>
                    <dim>64</dim>
                    <dim>184</dim>
                    <dim>184</dim>
                </port>
            </output>
            <weights offset="7168" size="147456"/>
            <biases offset="154624" size="256"/>
        </layer>
        <layer name="relu1_2" type="ReLU" precision="FP32" id="4">
            <data negative_slope="0.000000" engine="caffe.ReLUParameter.DEFAULT"/>
            <input>
                <port id="7">
                    <dim>1</dim>
                    <dim>64</dim>
                    <dim>184</dim>
                    <dim>184</dim>
                </port>
            </input>
            <output>
                <port id="8">
                    <dim>1</dim>
                    <dim>64</dim>
                    <dim>184</dim>
                    <dim>184</dim>
                </port>
            </output>
        </layer>
        <layer name="pool1_stage1" type="Pooling" precision="FP32" id="5">
            <pooling_data kernel-x="2" kernel-y="2" pad-x="0" pad-y="0" stride-x="2" stride-y="2" rounding-type="ceil" pool-method="max"/>
            <input>
                <port id="9">
                    <dim>1</dim>
                    <dim>64</dim>
                    <dim>184</dim>
                    <dim>184</dim>
                </port>
            </input>
            <output>
                <port id="10">
                    <dim>1</dim>
                    <dim>64</dim>
                    <dim>92</dim>
                    <dim>92</dim>
                </port>
            </output>
        </layer>
        <layer name="conv2_1" type="Convolution" precision="FP32" id="6">
            <convolution_data stride-x="1" stride-y="1" pad-x="1" pad-y="1" kernel-x="3" kernel-y="3" output="128" group="1"/>
            <input>
                <port id="11">
                    <dim>1</dim>
                    <dim>64</dim>
                    <dim>92</dim>
                    <dim>92</dim>
                </port>
            </input>
            <output>
                <port id="12">
                    <dim>1</dim>
                    <dim>128</dim>
                    <dim>92</dim>
                    <dim>92</dim>
                </port>
            </output>
            <weights offset="154880" size="294912"/>
            <biases offset="449792" size="512"/>
        </layer>
        <layer name="relu2_1" type="ReLU" precision="FP32" id="7">
            <data negative_slope="0.000000" engine="caffe.ReLUParameter.DEFAULT"/>
            <input>
                <port id="13">
                    <dim>1</dim>
                    <dim>128</dim>
                    <dim>92</dim>
                    <dim>92</dim>
                </port>
            </input>
            <output>
                <port id="14">
                    <dim>1</dim>
                    <dim>128</dim>
                    <dim>92</dim>
                    <dim>92</dim>
                </port>
            </output>
        </layer>
        <layer name="conv2_2" type="Convolution" precision="FP32" id="8">
            <convolution_data stride-x="1" stride-y="1" pad-x="1" pad-y="1" kernel-x="3" kernel-y="3" output="128" group="1"/>
            <input>
                <port id="15">
                    <dim>1</dim>
                    <dim>128</dim>
                    <dim>92</dim>
                    <dim>92</dim>
                </port>
            </input>
            <output>
                <port id="16">
                    <dim>1</dim>
                    <dim>128</dim>
                    <dim>92</dim>
                    <dim>92</dim>
                </port>
            </output>
            <weights offset="450304" size="589824"/>
            <biases offset="1040128" size="512"/>
        </layer>
        <layer name="relu2_2" type="ReLU" precision="FP32" id="9">
            <data negative_slope="0.000000" engine="caffe.ReLUParameter.DEFAULT"/>
            <input>
                <port id="17">
                    <dim>1</dim>
                    <dim>128</dim>
                    <dim>92</dim>
                    <dim>92</dim>
                </port>
            </input>
            <output>
                <port id="18">
                    <dim>1</dim>
                    <dim>128</dim>
                    <dim>92</dim>
                    <dim>92</dim>
                </port>
            </output>
        </layer>
        <layer name="pool2_stage1" type="Pooling" precision="FP32" id="10">
            <pooling_data kernel-x="2" kernel-y="2" pad-x="0" pad-y="0" stride-x="2" stride-y="2" rounding-type="ceil" pool-method="max"/>
            <input>
                <port id="19">
                    <dim>1</dim>
                    <dim>128</dim>
                    <dim>92</dim>
                    <dim>92</dim>
                </port>
            </input>
            <output>
                <port id="20">
                    <dim>1</dim>
                    <dim>128</dim>
                    <dim>46</dim>
                    <dim>46</dim>
                </port>
            </output>
        </layer>
        <layer name="conv3_1" type="Convolution" precision="FP32" id="11">
            <convolution_data stride-x="1" stride-y="1" pad-x="1" pad-y="1" kernel-x="3" kernel-y="3" output="256" group="1"/>
            <input>
                <port id="21">
                    <dim>1</dim>
                    <dim>128</dim>
                    <dim>46</dim>
                    <dim>46</dim>
                </port>
            </input>
            <output>
                <port id="22">
                    <dim>1</dim>
                    <dim>256</dim>
                    <dim>46</dim>
                    <dim>46</dim>
                </port>
            </output>
            <weights offset="1040640" size="1179648"/>
            <biases offset="2220288" size="1024"/>
        </layer>
        <layer name="relu3_1" type="ReLU" precision="FP32" id="12">
            <data negative_slope="0.000000" engine="caffe.ReLUParameter.DEFAULT"/>
            <input>
                <port id="23">
                    <dim>1</dim>
                    <dim>256</dim>
                    <dim>46</dim>
                    <dim>46</dim>
                </port>
            </input>
            <output>
                <port id="24">
                    <dim>1</dim>
                    <dim>256</dim>
                    <dim>46</dim>
                    <dim>46</dim>
                </port>
            </output>
        </layer>
        <layer name="conv3_2" type="Convolution" precision="FP32" id="13">
            <convolution_data stride-x="1" stride-y="1" pad-x="1" pad-y="1" kernel-x="3" kernel-y="3" output="256" group="1"/>
            <input>
                <port id="25">
                    <dim>1</dim>
                    <dim>256</dim>
                    <dim>46</dim>
                    <dim>46</dim>
                </port>
            </input>
            <output>
                <port id="26">
                    <dim>1</dim>
                    <dim>256</dim>
                    <dim>46</dim>
                    <dim>46</dim>
                </port>
            </output>
            <weights offset="2221312" size="2359296"/>
            <biases offset="4580608" size="1024"/>
        </layer>
        <layer name="relu3_2" type="ReLU" precision="FP32" id="14">
            <data negative_slope="0.000000" engine="caffe.ReLUParameter.DEFAULT"/>
            <input>
                <port id="27">
                    <dim>1</dim>
                    <dim>256</dim>
                    <dim>46</dim>
                    <dim>46</dim>
                </port>
            </input>
            <output>
                <port id="28">
                    <dim>1</dim>
                    <dim>256</dim>
                    <dim>46</dim>
                    <dim>46</dim>
                </port>
            </output>
        </layer>
        <layer name="conv3_3" type="Convolution" precision="FP32" id="15">
            <convolution_data stride-x="1" stride-y="1" pad-x="1" pad-y="1" kernel-x="3" kernel-y="3" output="256" group="1"/>
            <input>
                <port id="29">
                    <dim>1</dim>
                    <dim>256</dim>
                    <dim>46</dim>
                    <dim>46</dim>
                </port>
            </input>
            <output>
                <port id="30">
                    <dim>1</dim>
                    <dim>256</dim>
                    <dim>46</dim>
                    <dim>46</dim>
                </port>
            </output>
            <weights offset="4581632" size="2359296"/>
            <biases offset="6940928" size="1024"/>
        </layer>
        <layer name="relu3_3" type="ReLU" precision="FP32" id="16">
            <data negative_slope="0.000000" engine="caffe.ReLUParameter.DEFAULT"/>
            <input>
                <port id="31">
                    <dim>1</dim>
                    <dim>256</dim>
                    <dim>46</dim>
                    <dim>46</dim>
                </port>
            </input>
            <output>
                <port id="32">
                    <dim>1</dim>
                    <dim>256</dim>
                    <dim>46</dim>
                    <dim>46</dim>
                </port>
            </output>
        </layer>
        <layer name="conv3_4" type="Convolution" precision="FP32" id="17">
            <convolution_data stride-x="1" stride-y="1" pad-x="1" pad-y="1" kernel-x="3" kernel-y="3" output="256" group="1"/>
            <input>
                <port id="33">
                    <dim>1</dim>
                    <dim>256</dim>
                    <dim>46</dim>
                    <dim>46</dim>
                </port>
            </input>
            <output>
                <port id="34">
                    <dim>1</dim>
                    <dim>256</dim>
                    <dim>46</dim>
                    <dim>46</dim>
                </port>
            </output>
            <weights offset="6941952" size="2359296"/>
            <biases offset="9301248" size="1024"/>
        </layer>
        <layer name="relu3_4" type="ReLU" precision="FP32" id="18">
            <data negative_slope="0.000000" engine="caffe.ReLUParameter.DEFAULT"/>
            <input>
                <port id="35">
                    <dim>1</dim>
                    <dim>256</dim>
                    <dim>46</dim>
                    <dim>46</dim>
                </port>
            </input>
            <output>
                <port id="36">
                    <dim>1</dim>
                    <dim>256</dim>
                    <dim>46</dim>
                    <dim>46</dim>
                </port>
            </output>
        </layer>
        <layer name="pool3_stage1" type="Pooling" precision="FP32" id="19">
            <pooling_data kernel-x="2" kernel-y="2" pad-x="0" pad-y="0" stride-x="2" stride-y="2" rounding-type="ceil" pool-method="max"/>
            <input>
                <port id="37">
                    <dim>1</dim>
                    <dim>256</dim>
                    <dim>46</dim>
                    <dim>46</dim>
                </port>
            </input>
            <output>
                <port id="38">
                    <dim>1</dim>
                    <dim>256</dim>
                    <dim>23</dim>
                    <dim>23</dim>
                </port>
            </output>
        </layer>
        <layer name="conv4_1" type="Convolution" precision="FP32" id="20">
            <convolution_data stride-x="1" stride-y="1" pad-x="1" pad-y="1" kernel-x="3" kernel-y="3" output="512" group="1"/>
            <input>
                <port id="39">
                    <dim>1</dim>
                    <dim>256</dim>
                    <dim>23</dim>
                    <dim>23</dim>
                </port>
            </input>
            <output>
                <port id="40">
                    <dim>1</dim>
                    <dim>512</dim>
                    <dim>23</dim>
                    <dim>23</dim>
                </port>
            </output>
            <weights offset="9302272" size="4718592"/>
            <biases offset="14020864" size="2048"/>
        </layer>
        <layer name="relu4_1" type="ReLU" precision="FP32" id="21">
            <data negative_slope="0.000000" engine="caffe.ReLUParameter.DEFAULT"/>
            <input>
                <port id="41">
                    <dim>1</dim>
                    <dim>512</dim>
                    <dim>23</dim>
                    <dim>23</dim>
                </port>
            </input>
            <output>
                <port id="42">
                    <dim>1</dim>
                    <dim>512</dim>
                    <dim>23</dim>
                    <dim>23</dim>
                </port>
            </output>
        </layer>
        <layer name="conv4_2" type="Convolution" precision="FP32" id="22">
            <convolution_data stride-x="1" stride-y="1" pad-x="1" pad-y="1" kernel-x="3" kernel-y="3" output="512" group="1"/>
            <input>
                <port id="43">
                    <dim>1</dim>
                    <dim>512</dim>
                    <dim>23</dim>
                    <dim>23</dim>
                </port>
            </input>
            <output>
                <port id="44">
                    <dim>1</dim>
                    <dim>512</dim>
                    <dim>23</dim>
                    <dim>23</dim>
                </port>
            </output>
            <weights offset="14022912" size="9437184"/>
            <biases offset="23460096" size="2048"/>
        </layer>
        <layer name="relu4_2" type="ReLU" precision="FP32" id="23">
            <data negative_slope="0.000000" engine="caffe.ReLUParameter.DEFAULT"/>
            <input>
                <port id="45">
                    <dim>1</dim>
                    <dim>512</dim>
                    <dim>23</dim>
                    <dim>23</dim>
                </port>
            </input>
            <output>
                <port id="46">
                    <dim>1</dim>
                    <dim>512</dim>
                    <dim>23</dim>
                    <dim>23</dim>
                </port>
            </output>
        </layer>
        <layer name="conv4_3_CPM" type="Convolution" precision="FP32" id="24">
            <convolution_data stride-x="1" stride-y="1" pad-x="1" pad-y="1" kernel-x="3" kernel-y="3" output="256" group="1"/>
            <input>
                <port id="47">
                    <dim>1</dim>
                    <dim>512</dim>
                    <dim>23</dim>
                    <dim>23</dim>
                </port>
            </input>
            <output>
                <port id="48">
                    <dim>1</dim>
                    <dim>256</dim>
                    <dim>23</dim>
                    <dim>23</dim>
                </port>
            </output>
            <weights offset="23462144" size="4718592"/>
            <biases offset="28180736" size="1024"/>
        </layer>
        <layer name="relu4_3_CPM" type="ReLU" precision="FP32" id="25">
            <data negative_slope="0.000000" engine="caffe.ReLUParameter.DEFAULT"/>
            <input>
                <port id="49">
                    <dim>1</dim>
                    <dim>256</dim>
                    <dim>23</dim>
                    <dim>23</dim>
                </port>
            </input>
            <output>
                <port id="50">
                    <dim>1</dim>
                    <dim>256</dim>
                    <dim>23</dim>
                    <dim>23</dim>
                </port>
            </output>
        </layer>
        <layer name="conv4_4_CPM" type="Convolution" precision="FP32" id="26">
            <convolution_data stride-x="1" stride-y="1" pad-x="1" pad-y="1" kernel-x="3" kernel-y="3" output="128" group="1"/>
            <input>
                <port id="51">
                    <dim>1</dim>
                    <dim>256</dim>
                    <dim>23</dim>
                    <dim>23</dim>
                </port>
            </input>
            <output>
                <port id="52">
                    <dim>1</dim>
                    <dim>128</dim>
                    <dim>23</dim>
                    <dim>23</dim>
                </port>
            </output>
            <weights offset="28181760" size="1179648"/>
            <biases offset="29361408" size="512"/>
        </layer>
        <layer name="relu4_4_CPM" type="ReLU" precision="FP32" id="27">
            <data negative_slope="0.000000" engine="caffe.ReLUParameter.DEFAULT"/>
            <input>
                <port id="53">
                    <dim>1</dim>
                    <dim>128</dim>
                    <dim>23</dim>
                    <dim>23</dim>
                </port>
            </input>
            <output>
                <port id="54">
                    <dim>1</dim>
                    <dim>128</dim>
                    <dim>23</dim>
                    <dim>23</dim>
                </port>
            </output>
        </layer>
        <layer name="conv5_1_CPM_L2" type="Convolution" precision="FP32" id="30">
            <convolution_data stride-x="1" stride-y="1" pad-x="1" pad-y="1" kernel-x="3" kernel-y="3" output="128" group="1"/>
            <input>
                <port id="59">
                    <dim>1</dim>
                    <dim>128</dim>
                    <dim>23</dim>
                    <dim>23</dim>
                </port>
            </input>
            <output>
                <port id="60">
                    <dim>1</dim>
                    <dim>128</dim>
                    <dim>23</dim>
                    <dim>23</dim>
                </port>
            </output>
            <weights offset="29361920" size="589824"/>
            <biases offset="29951744" size="512"/>
        </layer>
        <layer name="relu5_1_CPM_L2" type="ReLU" precision="FP32" id="31">
            <data negative_slope="0.000000" engine="caffe.ReLUParameter.DEFAULT"/>
            <input>
                <port id="61">
                    <dim>1</dim>
                    <dim>128</dim>
                    <dim>23</dim>
                    <dim>23</dim>
                </port>
            </input>
            <output>
                <port id="62">
                    <dim>1</dim>
                    <dim>128</dim>
                    <dim>23</dim>
                    <dim>23</dim>
                </port>
            </output>
        </layer>
        <layer name="conv5_2_CPM_L2" type="Convolution" precision="FP32" id="34">
            <convolution_data stride-x="1" stride-y="1" pad-x="1" pad-y="1" kernel-x="3" kernel-y="3" output="128" group="1"/>
            <input>
                <port id="67">
                    <dim>1</dim>
                    <dim>128</dim>
                    <dim>23</dim>
                    <dim>23</dim>
                </port>
            </input>
            <output>
                <port id="68">
                    <dim>1</dim>
                    <dim>128</dim>
                    <dim>23</dim>
                    <dim>23</dim>
                </port>
            </output>
            <weights offset="29952256" size="589824"/>
            <biases offset="30542080" size="512"/>
        </layer>
        <layer name="relu5_2_CPM_L2" type="ReLU" precision="FP32" id="35">
            <data negative_slope="0.000000" engine="caffe.ReLUParameter.DEFAULT"/>
            <input>
                <port id="69">
                    <dim>1</dim>
                    <dim>128</dim>
                    <dim>23</dim>
                    <dim>23</dim>
                </port>
            </input>
            <output>
                <port id="70">
                    <dim>1</dim>
                    <dim>128</dim>
                    <dim>23</dim>
                    <dim>23</dim>
                </port>
            </output>
        </layer>
        <layer name="conv5_3_CPM_L2" type="Convolution" precision="FP32" id="38">
            <convolution_data stride-x="1" stride-y="1" pad-x="1" pad-y="1" kernel-x="3" kernel-y="3" output="128" group="1"/>
            <input>
                <port id="75">
                    <dim>1</dim>
                    <dim>128</dim>
                    <dim>23</dim>
                    <dim>23</dim>
                </port>
            </input>
            <output>
                <port id="76">
                    <dim>1</dim>
                    <dim>128</dim>
                    <dim>23</dim>
                    <dim>23</dim>
                </port>
            </output>
            <weights offset="30542592" size="589824"/>
            <biases offset="31132416" size="512"/>
        </layer>
        <layer name="relu5_3_CPM_L2" type="ReLU" precision="FP32" id="39">
            <data negative_slope="0.000000" engine="caffe.ReLUParameter.DEFAULT"/>
            <input>
                <port id="77">
                    <dim>1</dim>
                    <dim>128</dim>
                    <dim>23</dim>
                    <dim>23</dim>
                </port>
            </input>
            <output>
                <port id="78">
                    <dim>1</dim>
                    <dim>128</dim>
                    <dim>23</dim>
                    <dim>23</dim>
                </port>
            </output>
        </layer>
        <layer name="conv5_4_CPM_L2" type="Convolution" precision="FP32" id="42">
            <convolution_data stride-x="1" stride-y="1" pad-x="0" pad-y="0" kernel-x="1" kernel-y="1" output="512" group="1"/>
            <input>
                <port id="83">
                    <dim>1</dim>
                    <dim>128</dim>
                    <dim>23</dim>
                    <dim>23</dim>
                </port>
            </input>
            <output>
                <port id="84">
                    <dim>1</dim>
                    <dim>512</dim>
                    <dim>23</dim>
                    <dim>23</dim>
                </port>
            </output>
            <weights offset="31132928" size="262144"/>
            <biases offset="31395072" size="2048"/>
        </layer>
        <layer name="relu5_4_CPM_L2" type="ReLU" precision="FP32" id="43">
            <data negative_slope="0.000000" engine="caffe.ReLUParameter.DEFAULT"/>
            <input>
                <port id="85">
                    <dim>1</dim>
                    <dim>512</dim>
                    <dim>23</dim>
                    <dim>23</dim>
                </port>
            </input>
            <output>
                <port id="86">
                    <dim>1</dim>
                    <dim>512</dim>
                    <dim>23</dim>
                    <dim>23</dim>
                </port>
            </output>
        </layer>
        <layer name="conv5_5_CPM_L2" type="Convolution" precision="FP32" id="45">
            <convolution_data stride-x="1" stride-y="1" pad-x="0" pad-y="0" kernel-x="1" kernel-y="1" output="16" group="1"/>
            <input>
                <port id="89">
                    <dim>1</dim>
                    <dim>512</dim>
                    <dim>23</dim>
                    <dim>23</dim>
                </port>
            </input>
            <output>
                <port id="90">
                    <dim>1</dim>
                    <dim>16</dim>
                    <dim>23</dim>
                    <dim>23</dim>
                </port>
            </output>
            <weights offset="31397120" size="32768"/>
            <biases offset="31429888" size="64"/>
        </layer>
        <layer name="conv5_1_CPM_L1" type="Convolution" precision="FP32" id="28">
            <convolution_data stride-x="1" stride-y="1" pad-x="1" pad-y="1" kernel-x="3" kernel-y="3" output="128" group="1"/>
            <input>
                <port id="55">
                    <dim>1</dim>
                    <dim>128</dim>
                    <dim>23</dim>
                    <dim>23</dim>
                </port>
            </input>
            <output>
                <port id="56">
                    <dim>1</dim>
                    <dim>128</dim>
                    <dim>23</dim>
                    <dim>23</dim>
                </port>
            </output>
            <weights offset="31429952" size="589824"/>
            <biases offset="32019776" size="512"/>
        </layer>
        <layer name="relu5_1_CPM_L1" type="ReLU" precision="FP32" id="29">
            <data negative_slope="0.000000" engine="caffe.ReLUParameter.DEFAULT"/>
            <input>
                <port id="57">
                    <dim>1</dim>
                    <dim>128</dim>
                    <dim>23</dim>
                    <dim>23</dim>
                </port>
            </input>
            <output>
                <port id="58">
                    <dim>1</dim>
                    <dim>128</dim>
                    <dim>23</dim>
                    <dim>23</dim>
                </port>
            </output>
        </layer>
        <layer name="conv5_2_CPM_L1" type="Convolution" precision="FP32" id="32">
            <convolution_data stride-x="1" stride-y="1" pad-x="1" pad-y="1" kernel-x="3" kernel-y="3" output="128" group="1"/>
            <input>
                <port id="63">
                    <dim>1</dim>
                    <dim>128</dim>
                    <dim>23</dim>
                    <dim>23</dim>
                </port>
            </input>
            <output>
                <port id="64">
                    <dim>1</dim>
                    <dim>128</dim>
                    <dim>23</dim>
                    <dim>23</dim>
                </port>
            </output>
            <weights offset="32020288" size="589824"/>
            <biases offset="32610112" size="512"/>
        </layer>
        <layer name="relu5_2_CPM_L1" type="ReLU" precision="FP32" id="33">
            <data negative_slope="0.000000" engine="caffe.ReLUParameter.DEFAULT"/>
            <input>
                <port id="65">
                    <dim>1</dim>
                    <dim>128</dim>
                    <dim>23</dim>
                    <dim>23</dim>
                </port>
            </input>
            <output>
                <port id="66">
                    <dim>1</dim>
                    <dim>128</dim>
                    <dim>23</dim>
                    <dim>23</dim>
                </port>
            </output>
        </layer>
        <layer name="conv5_3_CPM_L1" type="Convolution" precision="FP32" id="36">
            <convolution_data stride-x="1" stride-y="1" pad-x="1" pad-y="1" kernel-x="3" kernel-y="3" output="128" group="1"/>
            <input>
                <port id="71">
                    <dim>1</dim>
                    <dim>128</dim>
                    <dim>23</dim>
                    <dim>23</dim>
                </port>
            </input>
            <output>
                <port id="72">
                    <dim>1</dim>
                    <dim>128</dim>
                    <dim>23</dim>
                    <dim>23</dim>
                </port>
            </output>
            <weights offset="32610624" size="589824"/>
            <biases offset="33200448" size="512"/>
        </layer>
        <layer name="relu5_3_CPM_L1" type="ReLU" precision="FP32" id="37">
            <data negative_slope="0.000000" engine="caffe.ReLUParameter.DEFAULT"/>
            <input>
                <port id="73">
                    <dim>1</dim>
                    <dim>128</dim>
                    <dim>23</dim>
                    <dim>23</dim>
                </port>
            </input>
            <output>
                <port id="74">
                    <dim>1</dim>
                    <dim>128</dim>
                    <dim>23</dim>
                    <dim>23</dim>
                </port>
            </output>
        </layer>
        <layer name="conv5_4_CPM_L1" type="Convolution" precision="FP32" id="40">
            <convolution_data stride-x="1" stride-y="1" pad-x="0" pad-y="0" kernel-x="1" kernel-y="1" output="512" group="1"/>
            <input>
                <port id="79">
                    <dim>1</dim>
                    <dim>128</dim>
                    <dim>23</dim>
                    <dim>23</dim>
                </port>
            </input>
            <output>
                <port id="80">
                    <dim>1</dim>
                    <dim>512</dim>
                    <dim>23</dim>
                    <dim>23</dim>
                </port>
            </output>
            <weights offset="33200960" size="262144"/>
            <biases offset="33463104" size="2048"/>
        </layer>
        <layer name="relu5_4_CPM_L1" type="ReLU" precision="FP32" id="41">
            <data negative_slope="0.000000" engine="caffe.ReLUParameter.DEFAULT"/>
            <input>
                <port id="81">
                    <dim>1</dim>
                    <dim>512</dim>
                    <dim>23</dim>
                    <dim>23</dim>
                </port>
            </input>
            <output>
                <port id="82">
                    <dim>1</dim>
                    <dim>512</dim>
                    <dim>23</dim>
                    <dim>23</dim>
                </port>
            </output>
        </layer>
        <layer name="conv5_5_CPM_L1" type="Convolution" precision="FP32" id="44">
            <convolution_data stride-x="1" stride-y="1" pad-x="0" pad-y="0" kernel-x="1" kernel-y="1" output="28" group="1"/>
            <input>
                <port id="87">
                    <dim>1</dim>
                    <dim>512</dim>
                    <dim>23</dim>
                    <dim>23</dim>
                </port>
            </input>
            <output>
                <port id="88">
                    <dim>1</dim>
                    <dim>28</dim>
                    <dim>23</dim>
                    <dim>23</dim>
                </port>
            </output>
            <weights offset="33465152" size="57344"/>
            <biases offset="33522496" size="112"/>
        </layer>
        <layer name="concat_stage2" type="Concat" precision="FP32" id="46">
            <concat_data axis="1"/>
            <input>
                <port id="91">
                    <dim>1</dim>
                    <dim>28</dim>
                    <dim>23</dim>
                    <dim>23</dim>
                </port>
                <port id="92">
                    <dim>1</dim>
                    <dim>16</dim>
                    <dim>23</dim>
                    <dim>23</dim>
                </port>
                <port id="93">
                    <dim>1</dim>
                    <dim>128</dim>
                    <dim>23</dim>
                    <dim>23</dim>
                </port>
            </input>
            <output>
                <port id="94">
                    <dim>1</dim>
                    <dim>172</dim>
                    <dim>23</dim>
                    <dim>23</dim>
                </port>
            </output>
        </layer>
        <layer name="Mconv1_stage2_L2" type="Convolution" precision="FP32" id="49">
            <convolution_data stride-x="1" stride-y="1" pad-x="3" pad-y="3" kernel-x="7" kernel-y="7" output="128" group="1"/>
            <input>
                <port id="99">
                    <dim>1</dim>
                    <dim>172</dim>
                    <dim>23</dim>
                    <dim>23</dim>
                </port>
            </input>
            <output>
                <port id="100">
                    <dim>1</dim>
                    <dim>128</dim>
                    <dim>23</dim>
                    <dim>23</dim>
                </port>
            </output>
            <weights offset="33522608" size="4315136"/>
            <biases offset="37837744" size="512"/>
        </layer>
        <layer name="Mrelu1_stage2_L2" type="ReLU" precision="FP32" id="50">
            <data negative_slope="0.000000" engine="caffe.ReLUParameter.DEFAULT"/>
            <input>
                <port id="101">
                    <dim>1</dim>
                    <dim>128</dim>
                    <dim>23</dim>
                    <dim>23</dim>
                </port>
            </input>
            <output>
                <port id="102">
                    <dim>1</dim>
                    <dim>128</dim>
                    <dim>23</dim>
                    <dim>23</dim>
                </port>
            </output>
        </layer>
        <layer name="Mconv2_stage2_L2" type="Convolution" precision="FP32" id="53">
            <convolution_data stride-x="1" stride-y="1" pad-x="3" pad-y="3" kernel-x="7" kernel-y="7" output="128" group="1"/>
            <input>
                <port id="107">
                    <dim>1</dim>
                    <dim>128</dim>
                    <dim>23</dim>
                    <dim>23</dim>
                </port>
            </input>
            <output>
                <port id="108">
                    <dim>1</dim>
                    <dim>128</dim>
                    <dim>23</dim>
                    <dim>23</dim>
                </port>
            </output>
            <weights offset="37838256" size="3211264"/>
            <biases offset="41049520" size="512"/>
        </layer>
        <layer name="Mrelu2_stage2_L2" type="ReLU" precision="FP32" id="54">
            <data negative_slope="0.000000" engine="caffe.ReLUParameter.DEFAULT"/>
            <input>
                <port id="109">
                    <dim>1</dim>
                    <dim>128</dim>
                    <dim>23</dim>
                    <dim>23</dim>
                </port>
            </input>
            <output>
                <port id="110">
                    <dim>1</dim>
                    <dim>128</dim>
                    <dim>23</dim>
                    <dim>23</dim>
                </port>
            </output>
        </layer>
        <layer name="Mconv3_stage2_L2" type="Convolution" precision="FP32" id="57">
            <convolution_data stride-x="1" stride-y="1" pad-x="3" pad-y="3" kernel-x="7" kernel-y="7" output="128" group="1"/>
            <input>
                <port id="115">
                    <dim>1</dim>
                    <dim>128</dim>
                    <dim>23</dim>
                    <dim>23</dim>
                </port>
            </input>
            <output>
                <port id="116">
                    <dim>1</dim>
                    <dim>128</dim>
                    <dim>23</dim>
                    <dim>23</dim>
                </port>
            </output>
            <weights offset="41050032" size="3211264"/>
            <biases offset="44261296" size="512"/>
        </layer>
        <layer name="Mrelu3_stage2_L2" type="ReLU" precision="FP32" id="58">
            <data negative_slope="0.000000" engine="caffe.ReLUParameter.DEFAULT"/>
            <input>
                <port id="117">
                    <dim>1</dim>
                    <dim>128</dim>
                    <dim>23</dim>
                    <dim>23</dim>
                </port>
            </input>
            <output>
                <port id="118">
                    <dim>1</dim>
                    <dim>128</dim>
                    <dim>23</dim>
                    <dim>23</dim>
                </port>
            </output>
        </layer>
        <layer name="Mconv4_stage2_L2" type="Convolution" precision="FP32" id="61">
            <convolution_data stride-x="1" stride-y="1" pad-x="3" pad-y="3" kernel-x="7" kernel-y="7" output="128" group="1"/>
            <input>
                <port id="123">
                    <dim>1</dim>
                    <dim>128</dim>
                    <dim>23</dim>
                    <dim>23</dim>
                </port>
            </input>
            <output>
                <port id="124">
                    <dim>1</dim>
                    <dim>128</dim>
                    <dim>23</dim>
                    <dim>23</dim>
                </port>
            </output>
            <weights offset="44261808" size="3211264"/>
            <biases offset="47473072" size="512"/>
        </layer>
        <layer name="Mrelu4_stage2_L2" type="ReLU" precision="FP32" id="62">
            <data negative_slope="0.000000" engine="caffe.ReLUParameter.DEFAULT"/>
            <input>
                <port id="125">
                    <dim>1</dim>
                    <dim>128</dim>
                    <dim>23</dim>
                    <dim>23</dim>
                </port>
            </input>
            <output>
                <port id="126">
                    <dim>1</dim>
                    <dim>128</dim>
                    <dim>23</dim>
                    <dim>23</dim>
                </port>
            </output>
        </layer>
        <layer name="Mconv5_stage2_L2" type="Convolution" precision="FP32" id="65">
            <convolution_data stride-x="1" stride-y="1" pad-x="3" pad-y="3" kernel-x="7" kernel-y="7" output="128" group="1"/>
            <input>
                <port id="131">
                    <dim>1</dim>
                    <dim>128</dim>
                    <dim>23</dim>
                    <dim>23</dim>
                </port>
            </input>
            <output>
                <port id="132">
                    <dim>1</dim>
                    <dim>128</dim>
                    <dim>23</dim>
                    <dim>23</dim>
                </port>
            </output>
            <weights offset="47473584" size="3211264"/>
            <biases offset="50684848" size="512"/>
        </layer>
        <layer name="Mrelu5_stage2_L2" type="ReLU" precision="FP32" id="66">
            <data negative_slope="0.000000" engine="caffe.ReLUParameter.DEFAULT"/>
            <input>
                <port id="133">
                    <dim>1</dim>
                    <dim>128</dim>
                    <dim>23</dim>
                    <dim>23</dim>
                </port>
            </input>
            <output>
                <port id="134">
                    <dim>1</dim>
                    <dim>128</dim>
                    <dim>23</dim>
                    <dim>23</dim>
                </port>
            </output>
        </layer>
        <layer name="Mconv6_stage2_L2" type="Convolution" precision="FP32" id="69">
            <convolution_data stride-x="1" stride-y="1" pad-x="0" pad-y="0" kernel-x="1" kernel-y="1" output="128" group="1"/>
            <input>
                <port id="139">
                    <dim>1</dim>
                    <dim>128</dim>
                    <dim>23</dim>
                    <dim>23</dim>
                </port>
            </input>
            <output>
                <port id="140">
                    <dim>1</dim>
                    <dim>128</dim>
                    <dim>23</dim>
                    <dim>23</dim>
                </port>
            </output>
            <weights offset="50685360" size="65536"/>
            <biases offset="50750896" size="512"/>
        </layer>
        <layer name="Mrelu6_stage2_L2" type="ReLU" precision="FP32" id="70">
            <data negative_slope="0.000000" engine="caffe.ReLUParameter.DEFAULT"/>
            <input>
                <port id="141">
                    <dim>1</dim>
                    <dim>128</dim>
                    <dim>23</dim>
                    <dim>23</dim>
                </port>
            </input>
            <output>
                <port id="142">
                    <dim>1</dim>
                    <dim>128</dim>
                    <dim>23</dim>
                    <dim>23</dim>
                </port>
            </output>
        </layer>
        <layer name="Mconv7_stage2_L2" type="Convolution" precision="FP32" id="72">
            <convolution_data stride-x="1" stride-y="1" pad-x="0" pad-y="0" kernel-x="1" kernel-y="1" output="16" group="1"/>
            <input>
                <port id="145">
                    <dim>1</dim>
                    <dim>128</dim>
                    <dim>23</dim>
                    <dim>23</dim>
                </port>
            </input>
            <output>
                <port id="146">
                    <dim>1</dim>
                    <dim>16</dim>
                    <dim>23</dim>
                    <dim>23</dim>
                </port>
            </output>
            <weights offset="50751408" size="8192"/>
            <biases offset="50759600" size="64"/>
        </layer>
        <layer name="Mconv1_stage2_L1" type="Convolution" precision="FP32" id="47">
            <convolution_data stride-x="1" stride-y="1" pad-x="3" pad-y="3" kernel-x="7" kernel-y="7" output="128" group="1"/>
            <input>
                <port id="95">
                    <dim>1</dim>
                    <dim>172</dim>
                    <dim>23</dim>
                    <dim>23</dim>
                </port>
            </input>
            <output>
                <port id="96">
                    <dim>1</dim>
                    <dim>128</dim>
                    <dim>23</dim>
                    <dim>23</dim>
                </port>
            </output>
            <weights offset="50759664" size="4315136"/>
            <biases offset="55074800" size="512"/>
        </layer>
        <layer name="Mrelu1_stage2_L1" type="ReLU" precision="FP32" id="48">
            <data negative_slope="0.000000" engine="caffe.ReLUParameter.DEFAULT"/>
            <input>
                <port id="97">
                    <dim>1</dim>
                    <dim>128</dim>
                    <dim>23</dim>
                    <dim>23</dim>
                </port>
            </input>
            <output>
                <port id="98">
                    <dim>1</dim>
                    <dim>128</dim>
                    <dim>23</dim>
                    <dim>23</dim>
                </port>
            </output>
        </layer>
        <layer name="Mconv2_stage2_L1" type="Convolution" precision="FP32" id="51">
            <convolution_data stride-x="1" stride-y="1" pad-x="3" pad-y="3" kernel-x="7" kernel-y="7" output="128" group="1"/>
            <input>
                <port id="103">
                    <dim>1</dim>
                    <dim>128</dim>
                    <dim>23</dim>
                    <dim>23</dim>
                </port>
            </input>
            <output>
                <port id="104">
                    <dim>1</dim>
                    <dim>128</dim>
                    <dim>23</dim>
                    <dim>23</dim>
                </port>
            </output>
            <weights offset="55075312" size="3211264"/>
            <biases offset="58286576" size="512"/>
        </layer>
        <layer name="Mrelu2_stage2_L1" type="ReLU" precision="FP32" id="52">
            <data negative_slope="0.000000" engine="caffe.ReLUParameter.DEFAULT"/>
            <input>
                <port id="105">
                    <dim>1</dim>
                    <dim>128</dim>
                    <dim>23</dim>
                    <dim>23</dim>
                </port>
            </input>
            <output>
                <port id="106">
                    <dim>1</dim>
                    <dim>128</dim>
                    <dim>23</dim>
                    <dim>23</dim>
                </port>
            </output>
        </layer>
        <layer name="Mconv3_stage2_L1" type="Convolution" precision="FP32" id="55">
            <convolution_data stride-x="1" stride-y="1" pad-x="3" pad-y="3" kernel-x="7" kernel-y="7" output="128" group="1"/>
            <input>
                <port id="111">
                    <dim>1</dim>
                    <dim>128</dim>
                    <dim>23</dim>
                    <dim>23</dim>
                </port>
            </input>
            <output>
                <port id="112">
                    <dim>1</dim>
                    <dim>128</dim>
                    <dim>23</dim>
                    <dim>23</dim>
                </port>
            </output>
            <weights offset="58287088" size="3211264"/>
            <biases offset="61498352" size="512"/>
        </layer>
        <layer name="Mrelu3_stage2_L1" type="ReLU" precision="FP32" id="56">
            <data negative_slope="0.000000" engine="caffe.ReLUParameter.DEFAULT"/>
            <input>
                <port id="113">
                    <dim>1</dim>
                    <dim>128</dim>
                    <dim>23</dim>
                    <dim>23</dim>
                </port>
            </input>
            <output>
                <port id="114">
                    <dim>1</dim>
                    <dim>128</dim>
                    <dim>23</dim>
                    <dim>23</dim>
                </port>
            </output>
        </layer>
        <layer name="Mconv4_stage2_L1" type="Convolution" precision="FP32" id="59">
            <convolution_data stride-x="1" stride-y="1" pad-x="3" pad-y="3" kernel-x="7" kernel-y="7" output="128" group="1"/>
            <input>
                <port id="119">
                    <dim>1</dim>
                    <dim>128</dim>
                    <dim>23</dim>
                    <dim>23</dim>
                </port>
            </input>
            <output>
                <port id="120">
                    <dim>1</dim>
                    <dim>128</dim>
                    <dim>23</dim>
                    <dim>23</dim>
                </port>
            </output>
            <weights offset="61498864" size="3211264"/>
            <biases offset="64710128" size="512"/>
        </layer>
        <layer name="Mrelu4_stage2_L1" type="ReLU" precision="FP32" id="60">
            <data negative_slope="0.000000" engine="caffe.ReLUParameter.DEFAULT"/>
            <input>
                <port id="121">
                    <dim>1</dim>
                    <dim>128</dim>
                    <dim>23</dim>
                    <dim>23</dim>
                </port>
            </input>
            <output>
                <port id="122">
                    <dim>1</dim>
                    <dim>128</dim>
                    <dim>23</dim>
                    <dim>23</dim>
                </port>
            </output>
        </layer>
        <layer name="Mconv5_stage2_L1" type="Convolution" precision="FP32" id="63">
            <convolution_data stride-x="1" stride-y="1" pad-x="3" pad-y="3" kernel-x="7" kernel-y="7" output="128" group="1"/>
            <input>
                <port id="127">
                    <dim>1</dim>
                    <dim>128</dim>
                    <dim>23</dim>
                    <dim>23</dim>
                </port>
            </input>
            <output>
                <port id="128">
                    <dim>1</dim>
                    <dim>128</dim>
                    <dim>23</dim>
                    <dim>23</dim>
                </port>
            </output>
            <weights offset="64710640" size="3211264"/>
            <biases offset="67921904" size="512"/>
        </layer>
        <layer name="Mrelu5_stage2_L1" type="ReLU" precision="FP32" id="64">
            <data negative_slope="0.000000" engine="caffe.ReLUParameter.DEFAULT"/>
            <input>
                <port id="129">
                    <dim>1</dim>
                    <dim>128</dim>
                    <dim>23</dim>
                    <dim>23</dim>
                </port>
            </input>
            <output>
                <port id="130">
                    <dim>1</dim>
                    <dim>128</dim>
                    <dim>23</dim>
                    <dim>23</dim>
                </port>
            </output>
        </layer>
        <layer name="Mconv6_stage2_L1" type="Convolution" precision="FP32" id="67">
            <convolution_data stride-x="1" stride-y="1" pad-x="0" pad-y="0" kernel-x="1" kernel-y="1" output="128" group="1"/>
            <input>
                <port id="135">
                    <dim>1</dim>
                    <dim>128</dim>
                    <dim>23</dim>
                    <dim>23</dim>
                </port>
            </input>
            <output>
                <port id="136">
                    <dim>1</dim>
                    <dim>128</dim>
                    <dim>23</dim>
                    <dim>23</dim>
                </port>
            </output>
            <weights offset="67922416" size="65536"/>
            <biases offset="67987952" size="512"/>
        </layer>
        <layer name="Mrelu6_stage2_L1" type="ReLU" precision="FP32" id="68">
            <data negative_slope="0.000000" engine="caffe.ReLUParameter.DEFAULT"/>
            <input>
                <port id="137">
                    <dim>1</dim>
                    <dim>128</dim>
                    <dim>23</dim>
                    <dim>23</dim>
                </port>
            </input>
            <output>
                <port id="138">
                    <dim>1</dim>
                    <dim>128</dim>
                    <dim>23</dim>
                    <dim>23</dim>
                </port>
            </output>
        </layer>
        <layer name="Mconv7_stage2_L1" type="Convolution" precision="FP32" id="71">
            <convolution_data stride-x="1" stride-y="1" pad-x="0" pad-y="0" kernel-x="1" kernel-y="1" output="28" group="1"/>
            <input>
                <port id="143">
                    <dim>1</dim>
                    <dim>128</dim>
                    <dim>23</dim>
                    <dim>23</dim>
                </port>
            </input>
            <output>
                <port id="144">
                    <dim>1</dim>
                    <dim>28</dim>
                    <dim>23</dim>
                    <dim>23</dim>
                </port>
            </output>
            <weights offset="67988464" size="14336"/>
            <biases offset="68002800" size="112"/>
        </layer>
        <layer name="concat_stage3" type="Concat" precision="FP32" id="73">
            <concat_data axis="1"/>
            <input>
                <port id="147">
                    <dim>1</dim>
                    <dim>28</dim>
                    <dim>23</dim>
                    <dim>23</dim>
                </port>
                <port id="148">
                    <dim>1</dim>
                    <dim>16</dim>
                    <dim>23</dim>
                    <dim>23</dim>
                </port>
                <port id="149">
                    <dim>1</dim>
                    <dim>128</dim>
                    <dim>23</dim>
                    <dim>23</dim>
                </port>
            </input>
            <output>
                <port id="150">
                    <dim>1</dim>
                    <dim>172</dim>
                    <dim>23</dim>
                    <dim>23</dim>
                </port>
            </output>
        </layer>
        <layer name="Mconv1_stage3_L2" type="Convolution" precision="FP32" id="76">
            <convolution_data stride-x="1" stride-y="1" pad-x="3" pad-y="3" kernel-x="7" kernel-y="7" output="128" group="1"/>
            <input>
                <port id="155">
                    <dim>1</dim>
                    <dim>172</dim>
                    <dim>23</dim>
                    <dim>23</dim>
                </port>
            </input>
            <output>
                <port id="156">
                    <dim>1</dim>
                    <dim>128</dim>
                    <dim>23</dim>
                    <dim>23</dim>
                </port>
            </output>
            <weights offset="68002912" size="4315136"/>
            <biases offset="72318048" size="512"/>
        </layer>
        <layer name="Mrelu1_stage3_L2" type="ReLU" precision="FP32" id="77">
            <data negative_slope="0.000000" engine="caffe.ReLUParameter.DEFAULT"/>
            <input>
                <port id="157">
                    <dim>1</dim>
                    <dim>128</dim>
                    <dim>23</dim>
                    <dim>23</dim>
                </port>
            </input>
            <output>
                <port id="158">
                    <dim>1</dim>
                    <dim>128</dim>
                    <dim>23</dim>
                    <dim>23</dim>
                </port>
            </output>
        </layer>
        <layer name="Mconv2_stage3_L2" type="Convolution" precision="FP32" id="80">
            <convolution_data stride-x="1" stride-y="1" pad-x="3" pad-y="3" kernel-x="7" kernel-y="7" output="128" group="1"/>
            <input>
                <port id="163">
                    <dim>1</dim>
                    <dim>128</dim>
                    <dim>23</dim>
                    <dim>23</dim>
                </port>
            </input>
            <output>
                <port id="164">
                    <dim>1</dim>
                    <dim>128</dim>
                    <dim>23</dim>
                    <dim>23</dim>
                </port>
            </output>
            <weights offset="72318560" size="3211264"/>
            <biases offset="75529824" size="512"/>
        </layer>
        <layer name="Mrelu2_stage3_L2" type="ReLU" precision="FP32" id="81">
            <data negative_slope="0.000000" engine="caffe.ReLUParameter.DEFAULT"/>
            <input>
                <port id="165">
                    <dim>1</dim>
                    <dim>128</dim>
                    <dim>23</dim>
                    <dim>23</dim>
                </port>
            </input>
            <output>
                <port id="166">
                    <dim>1</dim>
                    <dim>128</dim>
                    <dim>23</dim>
                    <dim>23</dim>
                </port>
            </output>
        </layer>
        <layer name="Mconv3_stage3_L2" type="Convolution" precision="FP32" id="84">
            <convolution_data stride-x="1" stride-y="1" pad-x="3" pad-y="3" kernel-x="7" kernel-y="7" output="128" group="1"/>
            <input>
                <port id="171">
                    <dim>1</dim>
                    <dim>128</dim>
                    <dim>23</dim>
                    <dim>23</dim>
                </port>
            </input>
            <output>
                <port id="172">
                    <dim>1</dim>
                    <dim>128</dim>
                    <dim>23</dim>
                    <dim>23</dim>
                </port>
            </output>
            <weights offset="75530336" size="3211264"/>
            <biases offset="78741600" size="512"/>
        </layer>
        <layer name="Mrelu3_stage3_L2" type="ReLU" precision="FP32" id="85">
            <data negative_slope="0.000000" engine="caffe.ReLUParameter.DEFAULT"/>
            <input>
                <port id="173">
                    <dim>1</dim>
                    <dim>128</dim>
                    <dim>23</dim>
                    <dim>23</dim>
                </port>
            </input>
            <output>
                <port id="174">
                    <dim>1</dim>
                    <dim>128</dim>
                    <dim>23</dim>
                    <dim>23</dim>
                </port>
            </output>
        </layer>
        <layer name="Mconv4_stage3_L2" type="Convolution" precision="FP32" id="88">
            <convolution_data stride-x="1" stride-y="1" pad-x="3" pad-y="3" kernel-x="7" kernel-y="7" output="128" group="1"/>
            <input>
                <port id="179">
                    <dim>1</dim>
                    <dim>128</dim>
                    <dim>23</dim>
                    <dim>23</dim>
                </port>
            </input>
            <output>
                <port id="180">
                    <dim>1</dim>
                    <dim>128</dim>
                    <dim>23</dim>
                    <dim>23</dim>
                </port>
            </output>
            <weights offset="78742112" size="3211264"/>
            <biases offset="81953376" size="512"/>
        </layer>
        <layer name="Mrelu4_stage3_L2" type="ReLU" precision="FP32" id="89">
            <data negative_slope="0.000000" engine="caffe.ReLUParameter.DEFAULT"/>
            <input>
                <port id="181">
                    <dim>1</dim>
                    <dim>128</dim>
                    <dim>23</dim>
                    <dim>23</dim>
                </port>
            </input>
            <output>
                <port id="182">
                    <dim>1</dim>
                    <dim>128</dim>
                    <dim>23</dim>
                    <dim>23</dim>
                </port>
            </output>
        </layer>
        <layer name="Mconv5_stage3_L2" type="Convolution" precision="FP32" id="92">
            <convolution_data stride-x="1" stride-y="1" pad-x="3" pad-y="3" kernel-x="7" kernel-y="7" output="128" group="1"/>
            <input>
                <port id="187">
                    <dim>1</dim>
                    <dim>128</dim>
                    <dim>23</dim>
                    <dim>23</dim>
                </port>
            </input>
            <output>
                <port id="188">
                    <dim>1</dim>
                    <dim>128</dim>
                    <dim>23</dim>
                    <dim>23</dim>
                </port>
            </output>
            <weights offset="81953888" size="3211264"/>
            <biases offset="85165152" size="512"/>
        </layer>
        <layer name="Mrelu5_stage3_L2" type="ReLU" precision="FP32" id="93">
            <data negative_slope="0.000000" engine="caffe.ReLUParameter.DEFAULT"/>
            <input>
                <port id="189">
                    <dim>1</dim>
                    <dim>128</dim>
                    <dim>23</dim>
                    <dim>23</dim>
                </port>
            </input>
            <output>
                <port id="190">
                    <dim>1</dim>
                    <dim>128</dim>
                    <dim>23</dim>
                    <dim>23</dim>
                </port>
            </output>
        </layer>
        <layer name="Mconv6_stage3_L2" type="Convolution" precision="FP32" id="96">
            <convolution_data stride-x="1" stride-y="1" pad-x="0" pad-y="0" kernel-x="1" kernel-y="1" output="128" group="1"/>
            <input>
                <port id="195">
                    <dim>1</dim>
                    <dim>128</dim>
                    <dim>23</dim>
                    <dim>23</dim>
                </port>
            </input>
            <output>
                <port id="196">
                    <dim>1</dim>
                    <dim>128</dim>
                    <dim>23</dim>
                    <dim>23</dim>
                </port>
            </output>
            <weights offset="85165664" size="65536"/>
            <biases offset="85231200" size="512"/>
        </layer>
        <layer name="Mrelu6_stage3_L2" type="ReLU" precision="FP32" id="97">
            <data negative_slope="0.000000" engine="caffe.ReLUParameter.DEFAULT"/>
            <input>
                <port id="197">
                    <dim>1</dim>
                    <dim>128</dim>
                    <dim>23</dim>
                    <dim>23</dim>
                </port>
            </input>
            <output>
                <port id="198">
                    <dim>1</dim>
                    <dim>128</dim>
                    <dim>23</dim>
                    <dim>23</dim>
                </port>
            </output>
        </layer>
        <layer name="Mconv7_stage3_L2" type="Convolution" precision="FP32" id="99">
            <convolution_data stride-x="1" stride-y="1" pad-x="0" pad-y="0" kernel-x="1" kernel-y="1" output="16" group="1"/>
            <input>
                <port id="201">
                    <dim>1</dim>
                    <dim>128</dim>
                    <dim>23</dim>
                    <dim>23</dim>
                </port>
            </input>
            <output>
                <port id="202">
                    <dim>1</dim>
                    <dim>16</dim>
                    <dim>23</dim>
                    <dim>23</dim>
                </port>
            </output>
            <weights offset="85231712" size="8192"/>
            <biases offset="85239904" size="64"/>
        </layer>
        <layer name="Mconv1_stage3_L1" type="Convolution" precision="FP32" id="74">
            <convolution_data stride-x="1" stride-y="1" pad-x="3" pad-y="3" kernel-x="7" kernel-y="7" output="128" group="1"/>
            <input>
                <port id="151">
                    <dim>1</dim>
                    <dim>172</dim>
                    <dim>23</dim>
                    <dim>23</dim>
                </port>
            </input>
            <output>
                <port id="152">
                    <dim>1</dim>
                    <dim>128</dim>
                    <dim>23</dim>
                    <dim>23</dim>
                </port>
            </output>
            <weights offset="85239968" size="4315136"/>
            <biases offset="89555104" size="512"/>
        </layer>
        <layer name="Mrelu1_stage3_L1" type="ReLU" precision="FP32" id="75">
            <data negative_slope="0.000000" engine="caffe.ReLUParameter.DEFAULT"/>
            <input>
                <port id="153">
                    <dim>1</dim>
                    <dim>128</dim>
                    <dim>23</dim>
                    <dim>23</dim>
                </port>
            </input>
            <output>
                <port id="154">
                    <dim>1</dim>
                    <dim>128</dim>
                    <dim>23</dim>
                    <dim>23</dim>
                </port>
            </output>
        </layer>
        <layer name="Mconv2_stage3_L1" type="Convolution" precision="FP32" id="78">
            <convolution_data stride-x="1" stride-y="1" pad-x="3" pad-y="3" kernel-x="7" kernel-y="7" output="128" group="1"/>
            <input>
                <port id="159">
                    <dim>1</dim>
                    <dim>128</dim>
                    <dim>23</dim>
                    <dim>23</dim>
                </port>
            </input>
            <output>
                <port id="160">
                    <dim>1</dim>
                    <dim>128</dim>
                    <dim>23</dim>
                    <dim>23</dim>
                </port>
            </output>
            <weights offset="89555616" size="3211264"/>
            <biases offset="92766880" size="512"/>
        </layer>
        <layer name="Mrelu2_stage3_L1" type="ReLU" precision="FP32" id="79">
            <data negative_slope="0.000000" engine="caffe.ReLUParameter.DEFAULT"/>
            <input>
                <port id="161">
                    <dim>1</dim>
                    <dim>128</dim>
                    <dim>23</dim>
                    <dim>23</dim>
                </port>
            </input>
            <output>
                <port id="162">
                    <dim>1</dim>
                    <dim>128</dim>
                    <dim>23</dim>
                    <dim>23</dim>
                </port>
            </output>
        </layer>
        <layer name="Mconv3_stage3_L1" type="Convolution" precision="FP32" id="82">
            <convolution_data stride-x="1" stride-y="1" pad-x="3" pad-y="3" kernel-x="7" kernel-y="7" output="128" group="1"/>
            <input>
                <port id="167">
                    <dim>1</dim>
                    <dim>128</dim>
                    <dim>23</dim>
                    <dim>23</dim>
                </port>
            </input>
            <output>
                <port id="168">
                    <dim>1</dim>
                    <dim>128</dim>
                    <dim>23</dim>
                    <dim>23</dim>
                </port>
            </output>
            <weights offset="92767392" size="3211264"/>
            <biases offset="95978656" size="512"/>
        </layer>
        <layer name="Mrelu3_stage3_L1" type="ReLU" precision="FP32" id="83">
            <data negative_slope="0.000000" engine="caffe.ReLUParameter.DEFAULT"/>
            <input>
                <port id="169">
                    <dim>1</dim>
                    <dim>128</dim>
                    <dim>23</dim>
                    <dim>23</dim>
                </port>
            </input>
            <output>
                <port id="170">
                    <dim>1</dim>
                    <dim>128</dim>
                    <dim>23</dim>
                    <dim>23</dim>
                </port>
            </output>
        </layer>
        <layer name="Mconv4_stage3_L1" type="Convolution" precision="FP32" id="86">
            <convolution_data stride-x="1" stride-y="1" pad-x="3" pad-y="3" kernel-x="7" kernel-y="7" output="128" group="1"/>
            <input>
                <port id="175">
                    <dim>1</dim>
                    <dim>128</dim>
                    <dim>23</dim>
                    <dim>23</dim>
                </port>
            </input>
            <output>
                <port id="176">
                    <dim>1</dim>
                    <dim>128</dim>
                    <dim>23</dim>
                    <dim>23</dim>
                </port>
            </output>
            <weights offset="95979168" size="3211264"/>
            <biases offset="99190432" size="512"/>
        </layer>
        <layer name="Mrelu4_stage3_L1" type="ReLU" precision="FP32" id="87">
            <data negative_slope="0.000000" engine="caffe.ReLUParameter.DEFAULT"/>
            <input>
                <port id="177">
                    <dim>1</dim>
                    <dim>128</dim>
                    <dim>23</dim>
                    <dim>23</dim>
                </port>
            </input>
            <output>
                <port id="178">
                    <dim>1</dim>
                    <dim>128</dim>
                    <dim>23</dim>
                    <dim>23</dim>
                </port>
            </output>
        </layer>
        <layer name="Mconv5_stage3_L1" type="Convolution" precision="FP32" id="90">
            <convolution_data stride-x="1" stride-y="1" pad-x="3" pad-y="3" kernel-x="7" kernel-y="7" output="128" group="1"/>
            <input>
                <port id="183">
                    <dim>1</dim>
                    <dim>128</dim>
                    <dim>23</dim>
                    <dim>23</dim>
                </port>
            </input>
            <output>
                <port id="184">
                    <dim>1</dim>
                    <dim>128</dim>
                    <dim>23</dim>
                    <dim>23</dim>
                </port>
            </output>
            <weights offset="99190944" size="3211264"/>
            <biases offset="102402208" size="512"/>
        </layer>
        <layer name="Mrelu5_stage3_L1" type="ReLU" precision="FP32" id="91">
            <data negative_slope="0.000000" engine="caffe.ReLUParameter.DEFAULT"/>
            <input>
                <port id="185">
                    <dim>1</dim>
                    <dim>128</dim>
                    <dim>23</dim>
                    <dim>23</dim>
                </port>
            </input>
            <output>
                <port id="186">
                    <dim>1</dim>
                    <dim>128</dim>
                    <dim>23</dim>
                    <dim>23</dim>
                </port>
            </output>
        </layer>
        <layer name="Mconv6_stage3_L1" type="Convolution" precision="FP32" id="94">
            <convolution_data stride-x="1" stride-y="1" pad-x="0" pad-y="0" kernel-x="1" kernel-y="1" output="128" group="1"/>
            <input>
                <port id="191">
                    <dim>1</dim>
                    <dim>128</dim>
                    <dim>23</dim>
                    <dim>23</dim>
                </port>
            </input>
            <output>
                <port id="192">
                    <dim>1</dim>
                    <dim>128</dim>
                    <dim>23</dim>
                    <dim>23</dim>
                </port>
            </output>
            <weights offset="102402720" size="65536"/>
            <biases offset="102468256" size="512"/>
        </layer>
        <layer name="Mrelu6_stage3_L1" type="ReLU" precision="FP32" id="95">
            <data negative_slope="0.000000" engine="caffe.ReLUParameter.DEFAULT"/>
            <input>
                <port id="193">
                    <dim>1</dim>
                    <dim>128</dim>
                    <dim>23</dim>
                    <dim>23</dim>
                </port>
            </input>
            <output>
                <port id="194">
                    <dim>1</dim>
                    <dim>128</dim>
                    <dim>23</dim>
                    <dim>23</dim>
                </port>
            </output>
        </layer>
        <layer name="Mconv7_stage3_L1" type="Convolution" precision="FP32" id="98">
            <convolution_data stride-x="1" stride-y="1" pad-x="0" pad-y="0" kernel-x="1" kernel-y="1" output="28" group="1"/>
            <input>
                <port id="199">
                    <dim>1</dim>
                    <dim>128</dim>
                    <dim>23</dim>
                    <dim>23</dim>
                </port>
            </input>
            <output>
                <port id="200">
                    <dim>1</dim>
                    <dim>28</dim>
                    <dim>23</dim>
                    <dim>23</dim>
                </port>
            </output>
            <weights offset="102468768" size="14336"/>
            <biases offset="102483104" size="112"/>
        </layer>
        <layer name="concat_stage4" type="Concat" precision="FP32" id="100">
            <concat_data axis="1"/>
            <input>
                <port id="203">
                    <dim>1</dim>
                    <dim>28</dim>
                    <dim>23</dim>
                    <dim>23</dim>
                </port>
                <port id="204">
                    <dim>1</dim>
                    <dim>16</dim>
                    <dim>23</dim>
                    <dim>23</dim>
                </port>
                <port id="205">
                    <dim>1</dim>
                    <dim>128</dim>
                    <dim>23</dim>
                    <dim>23</dim>
                </port>
            </input>
            <output>
                <port id="206">
                    <dim>1</dim>
                    <dim>172</dim>
                    <dim>23</dim>
                    <dim>23</dim>
                </port>
            </output>
        </layer>
        <layer name="Mconv1_stage4_L2" type="Convolution" precision="FP32" id="103">
            <convolution_data stride-x="1" stride-y="1" pad-x="3" pad-y="3" kernel-x="7" kernel-y="7" output="128" group="1"/>
            <input>
                <port id="211">
                    <dim>1</dim>
                    <dim>172</dim>
                    <dim>23</dim>
                    <dim>23</dim>
                </port>
            </input>
            <output>
                <port id="212">
                    <dim>1</dim>
                    <dim>128</dim>
                    <dim>23</dim>
                    <dim>23</dim>
                </port>
            </output>
            <weights offset="102483216" size="4315136"/>
            <biases offset="106798352" size="512"/>
        </layer>
        <layer name="Mrelu1_stage4_L2" type="ReLU" precision="FP32" id="104">
            <data negative_slope="0.000000" engine="caffe.ReLUParameter.DEFAULT"/>
            <input>
                <port id="213">
                    <dim>1</dim>
                    <dim>128</dim>
                    <dim>23</dim>
                    <dim>23</dim>
                </port>
            </input>
            <output>
                <port id="214">
                    <dim>1</dim>
                    <dim>128</dim>
                    <dim>23</dim>
                    <dim>23</dim>
                </port>
            </output>
        </layer>
        <layer name="Mconv2_stage4_L2" type="Convolution" precision="FP32" id="107">
            <convolution_data stride-x="1" stride-y="1" pad-x="3" pad-y="3" kernel-x="7" kernel-y="7" output="128" group="1"/>
            <input>
                <port id="219">
                    <dim>1</dim>
                    <dim>128</dim>
                    <dim>23</dim>
                    <dim>23</dim>
                </port>
            </input>
            <output>
                <port id="220">
                    <dim>1</dim>
                    <dim>128</dim>
                    <dim>23</dim>
                    <dim>23</dim>
                </port>
            </output>
            <weights offset="106798864" size="3211264"/>
            <biases offset="110010128" size="512"/>
        </layer>
        <layer name="Mrelu2_stage4_L2" type="ReLU" precision="FP32" id="108">
            <data negative_slope="0.000000" engine="caffe.ReLUParameter.DEFAULT"/>
            <input>
                <port id="221">
                    <dim>1</dim>
                    <dim>128</dim>
                    <dim>23</dim>
                    <dim>23</dim>
                </port>
            </input>
            <output>
                <port id="222">
                    <dim>1</dim>
                    <dim>128</dim>
                    <dim>23</dim>
                    <dim>23</dim>
                </port>
            </output>
        </layer>
        <layer name="Mconv3_stage4_L2" type="Convolution" precision="FP32" id="111">
            <convolution_data stride-x="1" stride-y="1" pad-x="3" pad-y="3" kernel-x="7" kernel-y="7" output="128" group="1"/>
            <input>
                <port id="227">
                    <dim>1</dim>
                    <dim>128</dim>
                    <dim>23</dim>
                    <dim>23</dim>
                </port>
            </input>
            <output>
                <port id="228">
                    <dim>1</dim>
                    <dim>128</dim>
                    <dim>23</dim>
                    <dim>23</dim>
                </port>
            </output>
            <weights offset="110010640" size="3211264"/>
            <biases offset="113221904" size="512"/>
        </layer>
        <layer name="Mrelu3_stage4_L2" type="ReLU" precision="FP32" id="112">
            <data negative_slope="0.000000" engine="caffe.ReLUParameter.DEFAULT"/>
            <input>
                <port id="229">
                    <dim>1</dim>
                    <dim>128</dim>
                    <dim>23</dim>
                    <dim>23</dim>
                </port>
            </input>
            <output>
                <port id="230">
                    <dim>1</dim>
                    <dim>128</dim>
                    <dim>23</dim>
                    <dim>23</dim>
                </port>
            </output>
        </layer>
        <layer name="Mconv4_stage4_L2" type="Convolution" precision="FP32" id="115">
            <convolution_data stride-x="1" stride-y="1" pad-x="3" pad-y="3" kernel-x="7" kernel-y="7" output="128" group="1"/>
            <input>
                <port id="235">
                    <dim>1</dim>
                    <dim>128</dim>
                    <dim>23</dim>
                    <dim>23</dim>
                </port>
            </input>
            <output>
                <port id="236">
                    <dim>1</dim>
                    <dim>128</dim>
                    <dim>23</dim>
                    <dim>23</dim>
                </port>
            </output>
            <weights offset="113222416" size="3211264"/>
            <biases offset="116433680" size="512"/>
        </layer>
        <layer name="Mrelu4_stage4_L2" type="ReLU" precision="FP32" id="116">
            <data negative_slope="0.000000" engine="caffe.ReLUParameter.DEFAULT"/>
            <input>
                <port id="237">
                    <dim>1</dim>
                    <dim>128</dim>
                    <dim>23</dim>
                    <dim>23</dim>
                </port>
            </input>
            <output>
                <port id="238">
                    <dim>1</dim>
                    <dim>128</dim>
                    <dim>23</dim>
                    <dim>23</dim>
                </port>
            </output>
        </layer>
        <layer name="Mconv5_stage4_L2" type="Convolution" precision="FP32" id="119">
            <convolution_data stride-x="1" stride-y="1" pad-x="3" pad-y="3" kernel-x="7" kernel-y="7" output="128" group="1"/>
            <input>
                <port id="243">
                    <dim>1</dim>
                    <dim>128</dim>
                    <dim>23</dim>
                    <dim>23</dim>
                </port>
            </input>
            <output>
                <port id="244">
                    <dim>1</dim>
                    <dim>128</dim>
                    <dim>23</dim>
                    <dim>23</dim>
                </port>
            </output>
            <weights offset="116434192" size="3211264"/>
            <biases offset="119645456" size="512"/>
        </layer>
        <layer name="Mrelu5_stage4_L2" type="ReLU" precision="FP32" id="120">
            <data negative_slope="0.000000" engine="caffe.ReLUParameter.DEFAULT"/>
            <input>
                <port id="245">
                    <dim>1</dim>
                    <dim>128</dim>
                    <dim>23</dim>
                    <dim>23</dim>
                </port>
            </input>
            <output>
                <port id="246">
                    <dim>1</dim>
                    <dim>128</dim>
                    <dim>23</dim>
                    <dim>23</dim>
                </port>
            </output>
        </layer>
        <layer name="Mconv6_stage4_L2" type="Convolution" precision="FP32" id="123">
            <convolution_data stride-x="1" stride-y="1" pad-x="0" pad-y="0" kernel-x="1" kernel-y="1" output="128" group="1"/>
            <input>
                <port id="251">
                    <dim>1</dim>
                    <dim>128</dim>
                    <dim>23</dim>
                    <dim>23</dim>
                </port>
            </input>
            <output>
                <port id="252">
                    <dim>1</dim>
                    <dim>128</dim>
                    <dim>23</dim>
                    <dim>23</dim>
                </port>
            </output>
            <weights offset="119645968" size="65536"/>
            <biases offset="119711504" size="512"/>
        </layer>
        <layer name="Mrelu6_stage4_L2" type="ReLU" precision="FP32" id="124">
            <data negative_slope="0.000000" engine="caffe.ReLUParameter.DEFAULT"/>
            <input>
                <port id="253">
                    <dim>1</dim>
                    <dim>128</dim>
                    <dim>23</dim>
                    <dim>23</dim>
                </port>
            </input>
            <output>
                <port id="254">
                    <dim>1</dim>
                    <dim>128</dim>
                    <dim>23</dim>
                    <dim>23</dim>
                </port>
            </output>
        </layer>
        <layer name="Mconv7_stage4_L2" type="Convolution" precision="FP32" id="126">
            <convolution_data stride-x="1" stride-y="1" pad-x="0" pad-y="0" kernel-x="1" kernel-y="1" output="16" group="1"/>
            <input>
                <port id="257">
                    <dim>1</dim>
                    <dim>128</dim>
                    <dim>23</dim>
                    <dim>23</dim>
                </port>
            </input>
            <output>
                <port id="258">
                    <dim>1</dim>
                    <dim>16</dim>
                    <dim>23</dim>
                    <dim>23</dim>
                </port>
            </output>
            <weights offset="119712016" size="8192"/>
            <biases offset="119720208" size="64"/>
        </layer>
        <layer name="Mconv1_stage4_L1" type="Convolution" precision="FP32" id="101">
            <convolution_data stride-x="1" stride-y="1" pad-x="3" pad-y="3" kernel-x="7" kernel-y="7" output="128" group="1"/>
            <input>
                <port id="207">
                    <dim>1</dim>
                    <dim>172</dim>
                    <dim>23</dim>
                    <dim>23</dim>
                </port>
            </input>
            <output>
                <port id="208">
                    <dim>1</dim>
                    <dim>128</dim>
                    <dim>23</dim>
                    <dim>23</dim>
                </port>
            </output>
            <weights offset="119720272" size="4315136"/>
            <biases offset="124035408" size="512"/>
        </layer>
        <layer name="Mrelu1_stage4_L1" type="ReLU" precision="FP32" id="102">
            <data negative_slope="0.000000" engine="caffe.ReLUParameter.DEFAULT"/>
            <input>
                <port id="209">
                    <dim>1</dim>
                    <dim>128</dim>
                    <dim>23</dim>
                    <dim>23</dim>
                </port>
            </input>
            <output>
                <port id="210">
                    <dim>1</dim>
                    <dim>128</dim>
                    <dim>23</dim>
                    <dim>23</dim>
                </port>
            </output>
        </layer>
        <layer name="Mconv2_stage4_L1" type="Convolution" precision="FP32" id="105">
            <convolution_data stride-x="1" stride-y="1" pad-x="3" pad-y="3" kernel-x="7" kernel-y="7" output="128" group="1"/>
            <input>
                <port id="215">
                    <dim>1</dim>
                    <dim>128</dim>
                    <dim>23</dim>
                    <dim>23</dim>
                </port>
            </input>
            <output>
                <port id="216">
                    <dim>1</dim>
                    <dim>128</dim>
                    <dim>23</dim>
                    <dim>23</dim>
                </port>
            </output>
            <weights offset="124035920" size="3211264"/>
            <biases offset="127247184" size="512"/>
        </layer>
        <layer name="Mrelu2_stage4_L1" type="ReLU" precision="FP32" id="106">
            <data negative_slope="0.000000" engine="caffe.ReLUParameter.DEFAULT"/>
            <input>
                <port id="217">
                    <dim>1</dim>
                    <dim>128</dim>
                    <dim>23</dim>
                    <dim>23</dim>
                </port>
            </input>
            <output>
                <port id="218">
                    <dim>1</dim>
                    <dim>128</dim>
                    <dim>23</dim>
                    <dim>23</dim>
                </port>
            </output>
        </layer>
        <layer name="Mconv3_stage4_L1" type="Convolution" precision="FP32" id="109">
            <convolution_data stride-x="1" stride-y="1" pad-x="3" pad-y="3" kernel-x="7" kernel-y="7" output="128" group="1"/>
            <input>
                <port id="223">
                    <dim>1</dim>
                    <dim>128</dim>
                    <dim>23</dim>
                    <dim>23</dim>
                </port>
            </input>
            <output>
                <port id="224">
                    <dim>1</dim>
                    <dim>128</dim>
                    <dim>23</dim>
                    <dim>23</dim>
                </port>
            </output>
            <weights offset="127247696" size="3211264"/>
            <biases offset="130458960" size="512"/>
        </layer>
        <layer name="Mrelu3_stage4_L1" type="ReLU" precision="FP32" id="110">
            <data negative_slope="0.000000" engine="caffe.ReLUParameter.DEFAULT"/>
            <input>
                <port id="225">
                    <dim>1</dim>
                    <dim>128</dim>
                    <dim>23</dim>
                    <dim>23</dim>
                </port>
            </input>
            <output>
                <port id="226">
                    <dim>1</dim>
                    <dim>128</dim>
                    <dim>23</dim>
                    <dim>23</dim>
                </port>
            </output>
        </layer>
        <layer name="Mconv4_stage4_L1" type="Convolution" precision="FP32" id="113">
            <convolution_data stride-x="1" stride-y="1" pad-x="3" pad-y="3" kernel-x="7" kernel-y="7" output="128" group="1"/>
            <input>
                <port id="231">
                    <dim>1</dim>
                    <dim>128</dim>
                    <dim>23</dim>
                    <dim>23</dim>
                </port>
            </input>
            <output>
                <port id="232">
                    <dim>1</dim>
                    <dim>128</dim>
                    <dim>23</dim>
                    <dim>23</dim>
                </port>
            </output>
            <weights offset="130459472" size="3211264"/>
            <biases offset="133670736" size="512"/>
        </layer>
        <layer name="Mrelu4_stage4_L1" type="ReLU" precision="FP32" id="114">
            <data negative_slope="0.000000" engine="caffe.ReLUParameter.DEFAULT"/>
            <input>
                <port id="233">
                    <dim>1</dim>
                    <dim>128</dim>
                    <dim>23</dim>
                    <dim>23</dim>
                </port>
            </input>
            <output>
                <port id="234">
                    <dim>1</dim>
                    <dim>128</dim>
                    <dim>23</dim>
                    <dim>23</dim>
                </port>
            </output>
        </layer>
        <layer name="Mconv5_stage4_L1" type="Convolution" precision="FP32" id="117">
            <convolution_data stride-x="1" stride-y="1" pad-x="3" pad-y="3" kernel-x="7" kernel-y="7" output="128" group="1"/>
            <input>
                <port id="239">
                    <dim>1</dim>
                    <dim>128</dim>
                    <dim>23</dim>
                    <dim>23</dim>
                </port>
            </input>
            <output>
                <port id="240">
                    <dim>1</dim>
                    <dim>128</dim>
                    <dim>23</dim>
                    <dim>23</dim>
                </port>
            </output>
            <weights offset="133671248" size="3211264"/>
            <biases offset="136882512" size="512"/>
        </layer>
        <layer name="Mrelu5_stage4_L1" type="ReLU" precision="FP32" id="118">
            <data negative_slope="0.000000" engine="caffe.ReLUParameter.DEFAULT"/>
            <input>
                <port id="241">
                    <dim>1</dim>
                    <dim>128</dim>
                    <dim>23</dim>
                    <dim>23</dim>
                </port>
            </input>
            <output>
                <port id="242">
                    <dim>1</dim>
                    <dim>128</dim>
                    <dim>23</dim>
                    <dim>23</dim>
                </port>
            </output>
        </layer>
        <layer name="Mconv6_stage4_L1" type="Convolution" precision="FP32" id="121">
            <convolution_data stride-x="1" stride-y="1" pad-x="0" pad-y="0" kernel-x="1" kernel-y="1" output="128" group="1"/>
            <input>
                <port id="247">
                    <dim>1</dim>
                    <dim>128</dim>
                    <dim>23</dim>
                    <dim>23</dim>
                </port>
            </input>
            <output>
                <port id="248">
                    <dim>1</dim>
                    <dim>128</dim>
                    <dim>23</dim>
                    <dim>23</dim>
                </port>
            </output>
            <weights offset="136883024" size="65536"/>
            <biases offset="136948560" size="512"/>
        </layer>
        <layer name="Mrelu6_stage4_L1" type="ReLU" precision="FP32" id="122">
            <data negative_slope="0.000000" engine="caffe.ReLUParameter.DEFAULT"/>
            <input>
                <port id="249">
                    <dim>1</dim>
                    <dim>128</dim>
                    <dim>23</dim>
                    <dim>23</dim>
                </port>
            </input>
            <output>
                <port id="250">
                    <dim>1</dim>
                    <dim>128</dim>
                    <dim>23</dim>
                    <dim>23</dim>
                </port>
            </output>
        </layer>
        <layer name="Mconv7_stage4_L1" type="Convolution" precision="FP32" id="125">
            <convolution_data stride-x="1" stride-y="1" pad-x="0" pad-y="0" kernel-x="1" kernel-y="1" output="28" group="1"/>
            <input>
                <port id="255">
                    <dim>1</dim>
                    <dim>128</dim>
                    <dim>23</dim>
                    <dim>23</dim>
                </port>
            </input>
            <output>
                <port id="256">
                    <dim>1</dim>
                    <dim>28</dim>
                    <dim>23</dim>
                    <dim>23</dim>
                </port>
            </output>
            <weights offset="136949072" size="14336"/>
            <biases offset="136963408" size="112"/>
        </layer>
    </layers>
    <edges>
        <edge from-layer="0" from-port="0" to-layer="1" to-port="1"/>
        <edge from-layer="1" from-port="2" to-layer="2" to-port="3"/>
        <edge from-layer="2" from-port="4" to-layer="3" to-port="5"/>
        <edge from-layer="3" from-port="6" to-layer="4" to-port="7"/>
        <edge from-layer="4" from-port="8" to-layer="5" to-port="9"/>
        <edge from-layer="5" from-port="10" to-layer="6" to-port="11"/>
        <edge from-layer="6" from-port="12" to-layer="7" to-port="13"/>
        <edge from-layer="7" from-port="14" to-layer="8" to-port="15"/>
        <edge from-layer="8" from-port="16" to-layer="9" to-port="17"/>
        <edge from-layer="9" from-port="18" to-layer="10" to-port="19"/>
        <edge from-layer="10" from-port="20" to-layer="11" to-port="21"/>
        <edge from-layer="11" from-port="22" to-layer="12" to-port="23"/>
        <edge from-layer="12" from-port="24" to-layer="13" to-port="25"/>
        <edge from-layer="13" from-port="26" to-layer="14" to-port="27"/>
        <edge from-layer="14" from-port="28" to-layer="15" to-port="29"/>
        <edge from-layer="15" from-port="30" to-layer="16" to-port="31"/>
        <edge from-layer="16" from-port="32" to-layer="17" to-port="33"/>
        <edge from-layer="17" from-port="34" to-layer="18" to-port="35"/>
        <edge from-layer="18" from-port="36" to-layer="19" to-port="37"/>
        <edge from-layer="19" from-port="38" to-layer="20" to-port="39"/>
        <edge from-layer="20" from-port="40" to-layer="21" to-port="41"/>
        <edge from-layer="21" from-port="42" to-layer="22" to-port="43"/>
        <edge from-layer="22" from-port="44" to-layer="23" to-port="45"/>
        <edge from-layer="23" from-port="46" to-layer="24" to-port="47"/>
        <edge from-layer="24" from-port="48" to-layer="25" to-port="49"/>
        <edge from-layer="25" from-port="50" to-layer="26" to-port="51"/>
        <edge from-layer="26" from-port="52" to-layer="27" to-port="53"/>
        <edge from-layer="27" from-port="54" to-layer="28" to-port="55"/>
        <edge from-layer="28" from-port="56" to-layer="29" to-port="57"/>
        <edge from-layer="27" from-port="54" to-layer="30" to-port="59"/>
        <edge from-layer="30" from-port="60" to-layer="31" to-port="61"/>
        <edge from-layer="29" from-port="58" to-layer="32" to-port="63"/>
        <edge from-layer="32" from-port="64" to-layer="33" to-port="65"/>
        <edge from-layer="31" from-port="62" to-layer="34" to-port="67"/>
        <edge from-layer="34" from-port="68" to-layer="35" to-port="69"/>
        <edge from-layer="33" from-port="66" to-layer="36" to-port="71"/>
        <edge from-layer="36" from-port="72" to-layer="37" to-port="73"/>
        <edge from-layer="35" from-port="70" to-layer="38" to-port="75"/>
        <edge from-layer="38" from-port="76" to-layer="39" to-port="77"/>
        <edge from-layer="37" from-port="74" to-layer="40" to-port="79"/>
        <edge from-layer="40" from-port="80" to-layer="41" to-port="81"/>
        <edge from-layer="39" from-port="78" to-layer="42" to-port="83"/>
        <edge from-layer="42" from-port="84" to-layer="43" to-port="85"/>
        <edge from-layer="41" from-port="82" to-layer="44" to-port="87"/>
        <edge from-layer="43" from-port="86" to-layer="45" to-port="89"/>
        <edge from-layer="44" from-port="88" to-layer="46" to-port="91"/>
        <edge from-layer="45" from-port="90" to-layer="46" to-port="92"/>
        <edge from-layer="27" from-port="54" to-layer="46" to-port="93"/>
        <edge from-layer="46" from-port="94" to-layer="47" to-port="95"/>
        <edge from-layer="47" from-port="96" to-layer="48" to-port="97"/>
        <edge from-layer="46" from-port="94" to-layer="49" to-port="99"/>
        <edge from-layer="49" from-port="100" to-layer="50" to-port="101"/>
        <edge from-layer="48" from-port="98" to-layer="51" to-port="103"/>
        <edge from-layer="51" from-port="104" to-layer="52" to-port="105"/>
        <edge from-layer="50" from-port="102" to-layer="53" to-port="107"/>
        <edge from-layer="53" from-port="108" to-layer="54" to-port="109"/>
        <edge from-layer="52" from-port="106" to-layer="55" to-port="111"/>
        <edge from-layer="55" from-port="112" to-layer="56" to-port="113"/>
        <edge from-layer="54" from-port="110" to-layer="57" to-port="115"/>
        <edge from-layer="57" from-port="116" to-layer="58" to-port="117"/>
        <edge from-layer="56" from-port="114" to-layer="59" to-port="119"/>
        <edge from-layer="59" from-port="120" to-layer="60" to-port="121"/>
        <edge from-layer="58" from-port="118" to-layer="61" to-port="123"/>
        <edge from-layer="61" from-port="124" to-layer="62" to-port="125"/>
        <edge from-layer="60" from-port="122" to-layer="63" to-port="127"/>
        <edge from-layer="63" from-port="128" to-layer="64" to-port="129"/>
        <edge from-layer="62" from-port="126" to-layer="65" to-port="131"/>
        <edge from-layer="65" from-port="132" to-layer="66" to-port="133"/>
        <edge from-layer="64" from-port="130" to-layer="67" to-port="135"/>
        <edge from-layer="67" from-port="136" to-layer="68" to-port="137"/>
        <edge from-layer="66" from-port="134" to-layer="69" to-port="139"/>
        <edge from-layer="69" from-port="140" to-layer="70" to-port="141"/>
        <edge from-layer="68" from-port="138" to-layer="71" to-port="143"/>
        <edge from-layer="70" from-port="142" to-layer="72" to-port="145"/>
        <edge from-layer="71" from-port="144" to-layer="73" to-port="147"/>
        <edge from-layer="72" from-port="146" to-layer="73" to-port="148"/>
        <edge from-layer="27" from-port="54" to-layer="73" to-port="149"/>
        <edge from-layer="73" from-port="150" to-layer="74" to-port="151"/>
        <edge from-layer="74" from-port="152" to-layer="75" to-port="153"/>
        <edge from-layer="73" from-port="150" to-layer="76" to-port="155"/>
        <edge from-layer="76" from-port="156" to-layer="77" to-port="157"/>
        <edge from-layer="75" from-port="154" to-layer="78" to-port="159"/>
        <edge from-layer="78" from-port="160" to-layer="79" to-port="161"/>
        <edge from-layer="77" from-port="158" to-layer="80" to-port="163"/>
        <edge from-layer="80" from-port="164" to-layer="81" to-port="165"/>
        <edge from-layer="79" from-port="162" to-layer="82" to-port="167"/>
        <edge from-layer="82" from-port="168" to-layer="83" to-port="169"/>
        <edge from-layer="81" from-port="166" to-layer="84" to-port="171"/>
        <edge from-layer="84" from-port="172" to-layer="85" to-port="173"/>
        <edge from-layer="83" from-port="170" to-layer="86" to-port="175"/>
        <edge from-layer="86" from-port="176" to-layer="87" to-port="177"/>
        <edge from-layer="85" from-port="174" to-layer="88" to-port="179"/>
        <edge from-layer="88" from-port="180" to-layer="89" to-port="181"/>
        <edge from-layer="87" from-port="178" to-layer="90" to-port="183"/>
        <edge from-layer="90" from-port="184" to-layer="91" to-port="185"/>
        <edge from-layer="89" from-port="182" to-layer="92" to-port="187"/>
        <edge from-layer="92" from-port="188" to-layer="93" to-port="189"/>
        <edge from-layer="91" from-port="186" to-layer="94" to-port="191"/>
        <edge from-layer="94" from-port="192" to-layer="95" to-port="193"/>
        <edge from-layer="93" from-port="190" to-layer="96" to-port="195"/>
        <edge from-layer="96" from-port="196" to-layer="97" to-port="197"/>
        <edge from-layer="95" from-port="194" to-layer="98" to-port="199"/>
        <edge from-layer="97" from-port="198" to-layer="99" to-port="201"/>
        <edge from-layer="98" from-port="200" to-layer="100" to-port="203"/>
        <edge from-layer="99" from-port="202" to-layer="100" to-port="204"/>
        <edge from-layer="27" from-port="54" to-layer="100" to-port="205"/>
        <edge from-layer="100" from-port="206" to-layer="101" to-port="207"/>
        <edge from-layer="101" from-port="208" to-layer="102" to-port="209"/>
        <edge from-layer="100" from-port="206" to-layer="103" to-port="211"/>
        <edge from-layer="103" from-port="212" to-layer="104" to-port="213"/>
        <edge from-layer="102" from-port="210" to-layer="105" to-port="215"/>
        <edge from-layer="105" from-port="216" to-layer="106" to-port="217"/>
        <edge from-layer="104" from-port="214" to-layer="107" to-port="219"/>
        <edge from-layer="107" from-port="220" to-layer="108" to-port="221"/>
        <edge from-layer="106" from-port="218" to-layer="109" to-port="223"/>
        <edge from-layer="109" from-port="224" to-layer="110" to-port="225"/>
        <edge from-layer="108" from-port="222" to-layer="111" to-port="227"/>
        <edge from-layer="111" from-port="228" to-layer="112" to-port="229"/>
        <edge from-layer="110" from-port="226" to-layer="113" to-port="231"/>
        <edge from-layer="113" from-port="232" to-layer="114" to-port="233"/>
        <edge from-layer="112" from-port="230" to-layer="115" to-port="235"/>
        <edge from-layer="115" from-port="236" to-layer="116" to-port="237"/>
        <edge from-layer="114" from-port="234" to-layer="117" to-port="239"/>
        <edge from-layer="117" from-port="240" to-layer="118" to-port="241"/>
        <edge from-layer="116" from-port="238" to-layer="119" to-port="243"/>
        <edge from-layer="119" from-port="244" to-layer="120" to-port="245"/>
        <edge from-layer="118" from-port="242" to-layer="121" to-port="247"/>
        <edge from-layer="121" from-port="248" to-layer="122" to-port="249"/>
        <edge from-layer="120" from-port="246" to-layer="123" to-port="251"/>
        <edge from-layer="123" from-port="252" to-layer="124" to-port="253"/>
        <edge from-layer="122" from-port="250" to-layer="125" to-port="255"/>
        <edge from-layer="124" from-port="254" to-layer="126" to-port="257"/>
    </edges>
</net>
